reinforcement-learning/model.pth (torch, 71495 bytes, 6 tensors)

layer1.weight f4 [128, 4]
0	0x3e53d346	0.20686063
1	0x3e6813aa	0.22663751
2	0x3e8aaf25	0.2708675
3	0x3e544c77	0.20732294
4	0x3e103043	0.1408091
5	0x3ea3f571	0.32023194
6	0x3cf82b57	0.030294104
7	0x3e9cb2fc	0.30605304
8	0xbd7de9c9	-0.061990533
9	0xbea11161	-0.31458572
10	0xbe4cce8b	-0.20000665
11	0xbe345b6b	-0.17612998
12	0x3d9e9911	0.07744039
13	0x3d9cbbc4	0.07653001
14	0x3e9a3e01	0.3012543
15	0x3dc125f0	0.09431064
16	0x3c7f2624	0.015573058
17	0x3e3aa15f	0.1822562
18	0x3f43ed30	0.76533794
19	0x3e6c3f5e	0.23071048
20	0x3dd31aff	0.103078835
21	0xbec80daf	-0.3907294
22	0xbd66ffe3	-0.056396376
23	0x3e13ec62	0.14445642
24	0x3ef701de	0.48243612
25	0x3eb12e03	0.34605417
26	0x3d794594	0.06085737
27	0x3ded3b14	0.11583534
28	0xbedc4bfe	-0.43026727
29	0xbec23806	-0.37933367
30	0xbf1e056c	-0.61727023
31	0xbe91f620	-0.2850809
32	0x3cbaa11e	0.022781905
33	0xbd195f14	-0.03744419
34	0xbf0ae6ad	-0.54258233
35	0x3d472913	0.048623156
36	0xbe1efbaa	-0.1552569
37	0x3d6919fc	0.056909546
38	0x3e0d209e	0.13781974
39	0xbd198f9c	-0.037490472
40	0x3e18a9c4	0.1490851
41	0x3dab2f65	0.08358649
42	0xbba19664	-0.004931258
43	0xbcc403cd	-0.023927594
44	0x3d84bfbe	0.064818844
45	0xbe24f6e3	-0.16109805
46	0xbe74fa71	-0.23923661
47	0x3deb6145	0.11493162
48	0x3e3391d4	0.17536098
49	0xbe369ee2	-0.17834046
50	0xbeda26c7	-0.4260771
51	0xbe0b12c2	-0.13581374
52	0xbea61ce7	-0.32443926
53	0xbeaafd5b	-0.3339642
54	0xbee1f849	-0.4413474
55	0xbe9e0fec	-0.30871522
56	0xbe4ae260	-0.19812918
57	0x3e00f52e	0.12593529
58	0xbc24d7d7	-0.010061226
59	0x3dcd20be	0.10016011
60	0xbedf1f3c	-0.43578517
61	0xbf379ea2	-0.7172643
62	0xbf30f0f8	-0.6911769
63	0xbf169ecc	-0.58836055
64	0xbd013bb1	-0.031551067
65	0xbe6ddf60	-0.23229742
66	0xbeb0f0fd	-0.3455886
67	0xbcc0ad5b	-0.023520162
68	0xbd2c75ef	-0.042104658
69	0x3e846268	0.25856328
70	0xbebee513	-0.37284145
71	0x3e05906b	0.13043372
72	0xbe9416f6	-0.28923768
73	0xbe66380f	-0.22482322
74	0x3f0f5e3c	0.56003165
75	0x3e15bb5b	0.14622252
76	0x3e3b0c2b	0.1826636
77	0x3e9ada05	0.3024446
78	0x3d853d56	0.065058395
79	0x3d9dc71c	0.07703993
80	0x3dd2491e	0.10267852
81	0xbdff2d9a	-0.1245987
82	0x3d9acd4c	0.075586885
83	0xbe3c1464	-0.18367153
84	0xbd8d972b	-0.069135986
85	0x3d9ef1bf	0.07760953
86	0x3e38ab07	0.18033992
87	0xbdcfd515	-0.10148064
88	0xbc9b7455	-0.01897637
89	0x3ec35291	0.3814893
90	0x3d06ab9b	0.0328785
91	0xbe897ad2	-0.26851517
92	0xbe519bc8	-0.20469582
93	0x3d30b7fe	0.04314422
94	0xbe927bff	-0.28610227
95	0x3e30c3f8	0.17262256
96	0xbe1b85cc	-0.15187758
97	0xbebb4724	-0.36577713
98	0x3f1d7f92	0.6152278
99	0x3ed567f3	0.4168087
100	0xbe137322	-0.14399388
101	0xbeab961c	-0.33512962
102	0x3e1d9756	0.15389761
103	0x3ea45367	0.3209488
104	0xbe5a8483	-0.21339612
105	0xbd04b8d5	-0.032402832
106	0x3f41a124	0.75636506
107	0x3d949c1a	0.072563365
108	0x3d952514	0.07282463
109	0x3e58b8cc	0.21164244
110	0xbebc5344	-0.36782277
111	0xbb877069	-0.0041332734
112	0xbeab395e	-0.33442205
113	0xbc70fb55	-0.01470836
114	0x3e65f61a	0.22457162
115	0xbe22ad63	-0.15886454
116	0xbec88097	-0.39160606
117	0xbed97d1a	-0.42478257
118	0xbf2e72e2	-0.6814405
119	0xbec97360	-0.39345837
120	0xbe79206e	-0.24328777
121	0x3e918074	0.28418314
122	0x3eb2ad71	0.3489795
123	0x3e8bca29	0.27302673
124	0xbb6fc145	-0.0036583703
125	0xbe2a11c8	-0.16608346
126	0x3dfad6ae	0.12247978
127	0xbe3b5cbc	-0.18297094
128	0xbe877519	-0.26456526
129	0xbc41155e	-0.0117848795
130	0xbd5a359a	-0.053273775
131	0x3e18342a	0.14863649
132	0x3cfd409e	0.030914601
133	0xbde92434	-0.11383858
134	0x3e1ab432	0.15107802
135	0xbe7873a8	-0.2426287
136	0xbe448e20	-0.19194841
137	0x3e565157	0.20929466
138	0x3e95765d	0.29191867
139	0x3e5ebd31	0.21751858
140	0xbe06c0ca	-0.1315948
141	0x3def567a	0.11686416
142	0x3e8a4da1	0.2701235
143	0xbe0ca856	-0.1373609
144	0x3e2ef2ae	0.17084762
145	0x3e4c86f7	0.1997336
146	0x3ee3b3c6	0.44473094
147	0xbe90c172	-0.28272587
148	0x3d23b815	0.039970476
149	0x3e2a6644	0.16640574
150	0x3ec7d44e	0.39029163
151	0xbd871bbd	-0.065970875
152	0xbe925de8	-0.2858727
153	0xbe25058b	-0.16115396
154	0x3ca81dd3	0.020522034
155	0x3e288e33	0.16460495
156	0xbf319838	-0.6937289
157	0xbea36c0f	-0.3191838
158	0xbf7d0d8d	-0.988488
159	0xbe96a5f4	-0.29423487
160	0xbd6581d3	-0.056032013
161	0x3d4fdbe3	0.05074681
162	0xbeba3b0d	-0.36373177
163	0x3e98a6c7	0.2981474
164	0x3e5624e2	0.20912507
165	0x3e8e1ef0	0.27757978
166	0x3a8beca4	0.0010675383
167	0xbc8d3699	-0.017237948
168	0xbe13e7c5	-0.14443882
169	0x3e3cf62c	0.18453282
170	0xbe147409	-0.14497389
171	0xbdfd52f0	-0.12369335
172	0xbd183d4d	-0.037167836
173	0xbd5df310	-0.05418688
174	0x3c94c199	0.01815872
175	0xbcf5e72d	-0.03001746
176	0x3e5f7eaf	0.2182567
177	0x3ea2a3de	0.31765646
178	0x3f1b33b3	0.6062576
179	0x3e9748a8	0.2954762
180	0xbdce5e30	-0.100765586
181	0x3d999af5	0.07500259
182	0x3e747dce	0.23876116
183	0x3e8cfe5a	0.27537805
184	0xbe9b8074	-0.3037144
185	0x3e334634	0.17507249
186	0xbe9849d9	-0.2974384
187	0x3d0e7e6e	0.03478854
188	0x3e84dd51	0.259501
189	0x3ec2fdf7	0.38084385
190	0x3e8b9c96	0.27267903
191	0x3ec489b0	0.38386297
192	0x3ed8db35	0.42354742
193	0x3e1f55ac	0.15560025
194	0x3e943d80	0.2895317
195	0xbd000960	-0.03125894
196	0x3e1679fe	0.14694974
197	0xbea212e3	-0.31655034
198	0xbd5fcfb3	-0.054641437
199	0xbe9ae7d0	-0.30254984
200	0x3ec7e08e	0.3903851
201	0xbe35626d	-0.17713328
202	0xbdf9400a	-0.121704176
203	0x3e21a8c0	0.1578703
204	0x3eb0388d	0.34418145
205	0x3f02c543	0.5108225
206	0x3f0c2493	0.5474331
207	0x3ef9b04b	0.48767313
208	0x3e7f14bd	0.24910255
209	0x3e226345	0.15858181
210	0x3dc36f6f	0.09542739
211	0xbe58440e	-0.21119711
212	0x3f080ea6	0.5314735
213	0x3d74ef4d	0.059798528
214	0xbd0e6a11	-0.03476912
215	0xbdec05d4	-0.11524549
216	0x3e08ec6f	0.13371442
217	0xbd0f4564	-0.034978285
218	0xbe8dc9d4	-0.27693045
219	0xbdc5033e	-0.09619759
220	0xbe4a0f94	-0.19732505
221	0xbe837abd	-0.2567958
222	0x3d743d45	0.059628744
223	0x3e5d6436	0.21620259
224	0x3d4e946b	0.05043451
225	0x3e89a81e	0.26886076
226	0xbe59b5da	-0.21260777
227	0x3e0ed62d	0.13948889
228	0xbe97bce9	-0.29636315
229	0xbf28fcb0	-0.6601057
230	0xbf0def15	-0.55442935
231	0xbf1116bc	-0.56675315
232	0xbe9811d1	-0.29701093
233	0x3d12c4b8	0.035832137
234	0x3e9bf715	0.30461946
235	0x3ebcaa35	0.36848608
236	0x3edb67f8	0.4285276
237	0xbe567939	-0.2094468
238	0xbe89e467	-0.2693207
239	0xbe450c37	-0.19242941
240	0xbd3f16d4	-0.04665263
241	0xbecf62a0	-0.40504932
242	0xbee42052	-0.44555908
243	0xbea2dfc6	-0.3181135
244	0xbe30ba30	-0.17258525
245	0xbe9e6f09	-0.30944088
246	0xbf587557	-0.84554046
247	0xbea8d1ed	-0.3297266
248	0x3e868b29	0.26278046
249	0x3ed0db88	0.4079249
250	0x3f0b1c8b	0.5434043
251	0x3e9f9904	0.3117143
252	0xbec116f8	-0.37712836
253	0x3d03074e	0.03198939
254	0x3e297a8c	0.16550654
255	0x3e4459d3	0.1917489

layer1.bias f4 [128]
0	0x3eac6120	0.3366785
1	0x3d874220	0.06604409
2	0x3e9b1776	0.30291337
3	0x3eef2cb4	0.46713793
4	0xbe07eeab	-0.13274638
5	0x3eec29e4	0.4612571
6	0x3d45ebbd	0.04832052
7	0xbe6530e3	-0.2238193
8	0x3e874fd9	0.26428106
9	0x3ef61fdf	0.4807119
10	0xbec41c82	-0.38303
11	0x3dbdbdd7	0.09264725
12	0x3ee87296	0.45399922
13	0xbe5f04d9	-0.21779193
14	0xbe943e6d	-0.28953877
15	0xbeaedb87	-0.3415186
16	0x3ebc89cd	0.36823884
17	0x3ee290fb	0.44251236
18	0xbecea431	-0.40359643
19	0xbec67622	-0.38762003
20	0x3eef8358	0.46779895
21	0x3ec1a338	0.3781984
22	0x3e8395dd	0.25700274
23	0x3f20cd3b	0.62813157
24	0xbb92a728	-0.004475493
25	0x3e487d20	0.19578981
26	0xbe64ec3d	-0.22355743
27	0x3f254fa1	0.6457463
28	0x3eaa8bfa	0.3330992
29	0xbe8fc91e	-0.28083128
30	0x3f06a1c6	0.52590597
31	0xbeabdf2b	-0.335687
32	0xbe9f9857	-0.31170914
33	0x3f1f2e8a	0.6218039
34	0x3ed75116	0.4205405
35	0x3f0645ba	0.52450144
36	0x3e3d7254	0.18500644
37	0x3ef5a2a8	0.4797566
38	0x3ea1edd0	0.3162675
39	0x3d65bd15	0.056088526
40	0x3ee1ffe6	0.44140548
41	0x3f0f40b4	0.55958104
42	0x3f13292e	0.5748471
43	0xbe312022	-0.17297414
44	0x3ab4b77f	0.0013787596
45	0xbed4f7e8	-0.41595387
46	0xbe38b07d	-0.18036075
47	0xbe3eb8c7	-0.18625174
48	0xbe13fa29	-0.14450897
49	0x3f0f470c	0.55967784
50	0x3ec0fd34	0.3769318
51	0xbe314fd7	-0.17315613
52	0xbedc3c09	-0.43014553
53	0xbe910fb4	-0.28332293
54	0x3ee06045	0.43823448
55	0x3f1a028a	0.60160124
56	0xbeaa19e7	-0.33222887
57	0xbea7586e	-0.32684654
58	0x3e91886a	0.28424388
59	0x3e5cdc30	0.2156837
60	0x3ed04599	0.406781
61	0xbe7cc14c	-0.24683112
62	0x3e03bce7	0.1286503
63	0xbec541f4	-0.3852688
64	0x3e22d1f9	0.1590041
65	0xbe82c6a5	-0.2554218
66	0x3e80667e	0.25078195
67	0x3ef8f3d6	0.48623532
68	0xbe3c4f28	-0.1838957
69	0xbed367a8	-0.4129002
70	0x3f00aeaf	0.50266546
71	0x3b7abb2a	0.003825853
72	0xbe475db9	-0.19469346
73	0x3ef34753	0.47515354
74	0x3e8993fe	0.26870722
75	0x3e7df048	0.24798691
76	0xbb70ead0	-0.0036761053
77	0x3f240b2a	0.64079535
78	0xbed64722	-0.41851145
79	0xbe29de72	-0.16588762
80	0x3ef79805	0.4835817
81	0x3e9e0be0	0.30868435
82	0x3f23c0a3	0.63965815
83	0xbe939d84	-0.28831112
84	0xbe57ac90	-0.21061921
85	0x3e7caa3c	0.24674314
86	0xbebb8f98	-0.3663299
87	0xbeae142f	-0.33999774
88	0x3ef45a05	0.4772493
89	0x3ead7710	0.338799
90	0x3f0537cb	0.5203826
91	0xbebdfa73	-0.3710514
92	0xbdae24fe	-0.085031494
93	0xbe781d2b	-0.24229877
94	0xbedee17c	-0.43531406
95	0x3f0b0db6	0.54317796
96	0xbebe2cf7	-0.3714368
97	0x3dcc7da0	0.099848986
98	0x3ec208fe	0.37897485
99	0xbe8f196a	-0.27949077
100	0x3f08cc27	0.5343651
101	0xbec9d339	-0.39418963
102	0xbe9c155d	-0.3048505
103	0x3da1646e	0.078804836
104	0x3e5ff92c	0.21872395
105	0xbe95c21b	-0.29249653
106	0x3d3a3059	0.045456264
107	0x3e3c6a8f	0.18400024
108	0x3eda5de3	0.42649755
109	0xbed9d45c	-0.4254483
110	0x3e761d70	0.24034667
111	0xbda5a9af	-0.08089005
112	0xbebaef99	-0.36510924
113	0xbebcecf0	-0.3689952
114	0x3eece436	0.4626786
115	0x3ecc2a98	0.39876246
116	0x3f13f4b7	0.5779528
117	0x3f04f24d	0.5193222
118	0xbd08dbcb	-0.033412736
119	0xbe562986	-0.20914277
120	0x3f1130a4	0.56714845
121	0x3e860c2e	0.26181167
122	0xbe8956ad	-0.2682394
123	0x3f12047f	0.5703811
124	0x3eeabb27	0.4584591
125	0xbea7fac6	-0.32808512
126	0x3ea7005f	0.3261747
127	0xbe445633	-0.19173507

layer2.weight f4 [128, 128]
0	0xbc6deb90	-0.0145214945
1	0xbdb1826c	-0.08667454
2	0x3e12d602	0.1433945
3	0x3e07306c	0.13202065
4	0xbef2a553	-0.47391757
5	0x3e156c42	0.14592078
6	0xbe00103b	-0.12506191
7	0xbea369b1	-0.31916574
8	0x3e91619b	0.2839478
9	0x3e6f79a2	0.23386243
10	0xbe89d4c4	-0.2692014
11	0x3d5c4806	0.053779624
12	0x3e59c863	0.21267848
13	0xbe359417	-0.17732273
14	0x3d2145a1	0.039373044
15	0xbeeefc5d	-0.46676913
16	0x3e3ce54d	0.18446846
17	0x3e3919aa	0.18076196
18	0xbdb213f8	-0.08695215
19	0xbeb5b928	-0.35492826
20	0x3e645ef3	0.22301845
21	0x3e34a49c	0.17640918
22	0xbb60be8e	-0.0034293267
23	0x3e58369c	0.21114582
24	0x3d40470d	0.04694276
25	0x3da51ab1	0.080617316
26	0xbe6328a7	-0.22183476
27	0x3e4a2420	0.19740343
28	0x3dc8f47b	0.09812256
29	0xbf54a091	-0.83057505
30	0x3e7122c2	0.23548415
31	0xbd7aa166	-0.061189078
32	0xbe2cac7e	-0.16862676
33	0x3e266a88	0.16251576
34	0x3df1253e	0.117746815
35	0x3e15ce0a	0.14629379
36	0xbc34fa65	-0.011046027
37	0x3db1e413	0.0868608
38	0x3d8cd1ed	0.06875978
39	0xbe32b1cf	-0.17450641
40	0x3df356b8	0.11881775
41	0x3e0e84bf	0.13917826
42	0x3e1e8105	0.15478905
43	0x3d580394	0.052737787
44	0xbe0860ae	-0.1331813
45	0xbe255c71	-0.16148545
46	0xbd964264	-0.07336882
47	0xbe856e57	-0.26060745
48	0xbe26b5fe	-0.16280362
49	0x3e50355e	0.20332858
50	0x3db0f74b	0.086409174
51	0xbdff77ef	-0.124740474
52	0xbdc29cd8	-0.09502572
53	0xbe6301ff	-0.2216873
54	0x3e69128f	0.22760986
55	0x3e02e8a9	0.12784065
56	0xbee2c555	-0.44291177
57	0xbf5b9f2a	-0.8578974
58	0x3d3042ba	0.043032385
59	0xbe510bd8	-0.20414674
60	0x3df0168b	0.1172305
61	0xbe605d5d	-0.21910615
62	0xbe6449ed	-0.22293825
63	0xbe8134ca	-0.25235587
64	0xbe735055	-0.23761113
65	0xbbeb685d	-0.007184072
66	0x3dc6a880	0.097001076
67	0x3e40f8ca	0.18844905
68	0xbddc6735	-0.10761873
69	0xbd4cb97c	-0.04998158
70	0x3e804f9a	0.2506073
71	0xbd7515e9	-0.05983535
72	0xbe636e25	-0.22209986
73	0x3e3138a1	0.17306758
74	0x3e63b9f4	0.22238904
75	0x3de383dd	0.11109135
76	0xbdcba5de	-0.09943746
77	0x3e5045d9	0.20339145
78	0xbdae9819	-0.08525104
79	0xbdd76aea	-0.10518439
80	0x3e0868ed	0.13321276
81	0x3dd4c03e	0.1038823
82	0x3e55b502	0.2086983
83	0xbf61a5d1	-0.8814364
84	0xbe144984	-0.14481169
85	0x3d8ed3b4	0.06973973
86	0xbe7567ca	-0.23965374
87	0xbe7929b3	-0.24332313
88	0x3def811f	0.1169455
89	0x3dce9b2b	0.1008819
90	0x3e173046	0.14764509
91	0xbead0bd7	-0.33798096
92	0xbe2f068f	-0.17092346
93	0xbd3385a1	-0.04382861
94	0xbdd0e40f	-0.10199749
95	0x3e6de9e3	0.23233752
96	0xbeec3788	-0.46136117
97	0xbd465cc5	-0.048428316
98	0x3e01a606	0.12660989
99	0x3c9a6f12	0.01885179
100	0x3e777c0c	0.24168414
101	0xbeb51480	-0.35367203
102	0xbd55ff94	-0.05224569
103	0xbdfda1f2	-0.12384404
104	0xbd2cdd8b	-0.042203467
105	0xbebad986	-0.36494082
106	0xbe08049e	-0.13283011
107	0x3d8882fb	0.066656075
108	0x3e762332	0.24036863
109	0xbee4b974	-0.4467274
110	0x3cabfc65	0.020994375
111	0xbb71d0f0	-0.0036898218
112	0xbda9aa41	-0.082844265
113	0xbe27fa96	-0.16404185
114	0x3e3aee3c	0.18254942
115	0x3e3b94ef	0.18318532
116	0x3e77c349	0.24195589
117	0x3e890929	0.267648
118	0xbd9cae89	-0.076504774
119	0xbdcd858f	-0.1003524
120	0x3e672834	0.2257393
121	0x3e4c42fc	0.19947428
122	0xbde0fc48	-0.10985619
123	0x3e00c718	0.12575948
124	0x3e30f410	0.17280602
125	0xbe9c73fc	-0.3055724
126	0xbd6a1f71	-0.05715889
127	0xbe4e354d	-0.2013752
128	0xbe0429ef	-0.12906621
129	0xbe287ca8	-0.16453803
130	0x3df458c8	0.11930996
131	0xbd1f5269	-0.03889695
132	0xbeb668ea	-0.35626918
133	0x3d094508	0.0335131
134	0xbe6f6703	-0.2337914
135	0xbe852dd6	-0.26011533
136	0x3d62ae02	0.055341728
137	0x3d3526a1	0.044226293
138	0x3cd285fc	0.025698654
139	0x3c8e2aef	0.017354457
140	0x3a09eb30	0.0005261181
141	0xbd7a9ccc	-0.06118469
142	0x3beedea3	0.007289724
143	0xbe62b2ee	-0.22138569
144	0x3cd950d1	0.026527794
145	0xbcdbdc64	-0.026838489
146	0xbd9b2c57	-0.075768165
147	0xbe4e9432	-0.2017372
148	0xbd05e217	-0.03268632
149	0xbd937499	-0.071999736
150	0xbdb1cafa	-0.08681293
151	0xbd17cd58	-0.037061065
152	0xbc459b7b	-0.012060995
153	0x3d87244a	0.065987185
154	0xbe568ce9	-0.2095219
155	0xbd9458d8	-0.07243508
156	0x3dc83e25	0.09777478
157	0xbeefe39a	-0.46853334
158	0xbd926850	-0.07148802
159	0xbd47f1cc	-0.04881458
160	0xbe71a3be	-0.23597619
161	0x3d8de513	0.06928458
162	0xbcb4b40a	-0.022058506
163	0x3cb9989c	0.022655778
164	0xbddc76fc	-0.10764882
165	0xbd4cbb25	-0.049983162
166	0x3dc07da5	0.09398965
167	0xbd7eb52c	-0.062184498
168	0xbc89f288	-0.01683928
169	0xbe0552e8	-0.13019907
170	0xbc535a33	-0.012899923
171	0xbd2e5286	-0.04255917
172	0xbe123d4d	-0.14281197
173	0xbe156c10	-0.14592004
174	0xbdb5af97	-0.08871382
175	0xbe983c61	-0.29733565
176	0xbe05f5f9	-0.13082112
177	0x3d8080eb	0.06274589
178	0xbddc7153	-0.107638024
179	0xbe2cf101	-0.1688881
180	0xbd9abef6	-0.07555954
181	0xbe1b3992	-0.1515868
182	0x3cb32d26	0.021872114
183	0x3d3a29dd	0.04545008
184	0xbe5bbded	-0.2145917
185	0xbef9c35e	-0.48781866
186	0x3dae460f	0.08509456
187	0xbec8b670	-0.3920169
188	0x3d97f9fa	0.07420726
189	0xbdc40d74	-0.095728785
190	0xbe583146	-0.21112546
191	0xbe7cd096	-0.24688944
192	0xbe773960	-0.2414298
193	0x3de1dc06	0.11028294
194	0xbc903556	-0.017603558
195	0x3d2aeebd	0.041731585
196	0xbdbb0678	-0.09132093
197	0xbe164d6d	-0.14677973
198	0x3d86ce44	0.06582311
199	0x3d18a9de	0.037271373
200	0xbe6f85c5	-0.23390873
201	0x3d550df5	0.052015264
202	0xbd42dbc4	-0.047572866
203	0x3ded499d	0.11586306
204	0x3d0d9186	0.03456261
205	0xbdaa796d	-0.083239414
206	0xbd302f58	-0.0430139
207	0x3d6c714b	0.057725232
208	0xbd4605e1	-0.04834545
209	0x3de9c99f	0.11415409
210	0xbd6d3dd7	-0.057920303
211	0xbf16a66a	-0.5884768
212	0xbe235d0f	-0.15953468
213	0xbc98c46f	-0.018648354
214	0xbe5c2df5	-0.21501906
215	0xbdbd4042	-0.09240772
216	0x3cd1c4f2	0.025606606
217	0xbdcb7060	-0.09933543
218	0x3d180ff2	0.03712458
219	0xbeb25539	-0.34830645
220	0xbe114939	-0.14188088
221	0xbd6c5057	-0.057693806
222	0xbdfb8851	-0.1228186
223	0xbd391f50	-0.045195878
224	0xbe658bfc	-0.22416681
225	0xbf0e2eb0	-0.5553999
226	0xbc6cd708	-0.014455564
227	0x3d1b2114	0.037873343
228	0xbdb67ff1	-0.08911122
229	0xbe39687f	-0.18106268
230	0xbd9752e7	-0.07388859
231	0xbd922b65	-0.07137183
232	0xbe343638	-0.17598808
233	0xbe6d49e9	-0.23172726
234	0xbce5f6df	-0.028071819
235	0x3bb8b5d5	0.0056369104
236	0x3cfa3187	0.030541195
237	0xbe9b6b22	-0.30355173
238	0xbd6e21d9	-0.05813775
239	0xbe43844d	-0.19093437
240	0xbd869b98	-0.06572646
241	0xbd96d835	-0.07365457
242	0xbd6c9a23	-0.057764184
243	0xbbbeddd3	-0.0058247834
244	0xbd72af49	-0.059249196
245	0x3c2c0086	0.010498172
246	0xbdd349b8	-0.10316795
247	0x3ccc6730	0.024951547
248	0x3d518545	0.051152486
249	0xbd488f61	-0.04896486
250	0xbdf280c8	-0.11840969
251	0xbba8df3d	-0.005153565
252	0xbd49f936	-0.04930993
253	0xbe7de250	-0.24793363
254	0xbd13bea9	-0.0360705
255	0xbdc05e1a	-0.093929484

layer2.bias f4 [128]
0	0x3e6d55f7	0.23177324
1	0xbbff62b8	-0.0077937506
2	0x3ba1d7c9	0.0049390537
3	0x3e4e0083	0.20117383
4	0x3d79570c	0.06087403
5	0x3c895c00	0.016767502
6	0x3e80a5a5	0.25126377
7	0x3e0b159d	0.13582464
8	0x3e2abe68	0.16674197
9	0xbddfa755	-0.10920588
10	0xbcdeae66	-0.027182769
11	0x3e87633e	0.26442903
12	0x3dc8a784	0.09797576
13	0x3e10fe93	0.14159612
14	0x3e0cf23f	0.13764285
15	0xbd0e6c16	-0.034771048
16	0x3e83efb7	0.25768825
17	0x3e694d21	0.22783329
18	0x3e684a80	0.2268467
19	0xbd3caaf8	-0.046061486
20	0x3dd63bca	0.104606226
21	0x3e4ad957	0.19809471
22	0x3e867c97	0.2626693
23	0xbca44ab3	-0.02005515
24	0x3e3830af	0.17987321
25	0x3e9cb8d9	0.30609778
26	0x3e208fe1	0.15679885
27	0xbbd89bb2	-0.006610357
28	0x3acff6f9	0.001586645
29	0x3e4d8a0a	0.20072189
30	0x3e357cfb	0.17723458
31	0x3e2058e2	0.15658906
32	0x3e3376a0	0.1752572
33	0x3c8d750b	0.017267724
34	0x3e144b56	0.14481863
35	0x3e3c6e33	0.18401413
36	0x3e24a74b	0.16079442
37	0x3d267140	0.040635347
38	0x3e88ac21	0.26693824
39	0x3e3c5cac	0.18394727
40	0x3e97e75a	0.29668695
41	0xbd4a0ab3	-0.04932661
42	0x3d0af604	0.033926025
43	0x3d7cb2ff	0.06169414
44	0x3c1c55bb	0.009541924
45	0xbb66a1b7	-0.0035191604
46	0xbd1f636a	-0.038913168
47	0x3e2d7075	0.1693743
48	0x3e4a9088	0.19781697
49	0xbe1208f4	-0.14261228
50	0xbd067236	-0.032823764
51	0x3e011cd6	0.12608656
52	0x3c8c9fab	0.01716598
53	0x3e62c6dd	0.22146173
54	0x3e6a09ed	0.22855349
55	0x3e8f68c8	0.2800963
56	0xbdd0307b	-0.10165497
57	0x3dc6552f	0.09684216
58	0x3e55c2d2	0.208751
59	0x3d79ac07	0.060955074
60	0xbd6a974a	-0.057273187
61	0x3e596731	0.2123077
62	0x3d4c28d2	0.049843617
63	0xbd91cda5	-0.07119302
64	0x3e6c6198	0.23084104
65	0x3e2d934e	0.16950724
66	0x3c1aad3f	0.009440719
67	0x3d90b237	0.07065242
68	0xbc1cd575	-0.0095723765
69	0x3e088447	0.1333171
70	0x3dbf7b89	0.09349734
71	0x3db7cd3f	0.089746945
72	0x3c588152	0.013214426
73	0x3e8ef65f	0.2792234
74	0x3de97a0f	0.11400234
75	0xbd488739	-0.048957083
76	0x3c67efb4	0.014156271
77	0x3d3e8574	0.04651399
78	0x3cba88fa	0.022770394
79	0xbd57533c	-0.052569613
80	0xbd015eac	-0.031584427
81	0xbc8045df	-0.015658317
82	0xbde1e0e7	-0.11029225
83	0x3de53297	0.1119129
84	0xbd8da472	-0.06916131
85	0x3e964650	0.2935052
86	0x3e3003fc	0.1718902
87	0x3e6ce052	0.23132446
88	0x3d7f3098	0.062302202
89	0x3ccf825a	0.025330711
90	0xbc372af6	-0.011179676
91	0x3cb6950f	0.022287874
92	0xbbfde88c	-0.007748669
93	0x3e80633e	0.25075716
94	0xbcb14164	-0.021637626
95	0x3db15040	0.086578846
96	0x3e9c3fd9	0.30517462
97	0x3c95e151	0.018295916
98	0x3e10bf7f	0.1413555
99	0xbd8014e7	-0.06253987
100	0xbcaafb93	-0.020871913
101	0xbd61c9ac	-0.05512397
102	0x3e76fea7	0.2412058
103	0x3c1bdae5	0.009512638
104	0x3d12bc68	0.03582421
105	0x3e6bc35a	0.2302374
106	0x3db8a616	0.090160534
107	0x3e788756	0.24270377
108	0xbd139a4a	-0.036035813
109	0xbda25bf3	-0.07927694
110	0xbbf9a981	-0.0076190834
111	0x3d748c5c	0.05970417
112	0x3e21a47e	0.15785405
113	0x3e4097d0	0.18807912
114	0xbc1aee01	-0.009456159
115	0x3e6bd58f	0.23030685
116	0x3e7c8730	0.24660945
117	0x3e09d6bb	0.1346082
118	0x3de84dbf	0.11342954
119	0x3e89286b	0.2678865
120	0x3e271e70	0.16320205
121	0x3cd98148	0.026550904
122	0xbd71723a	-0.058946826
123	0x3e4958b0	0.19662738
124	0x3e9547d7	0.29156372
125	0x3e3a598a	0.18198219
126	0x3e284086	0.16430864
127	0x3e8ef5f9	0.27922037

layer3.weight f4 [2, 128]
0	0x3ea3367a	0.318775
1	0x3e596255	0.21228917
2	0xbe9b7124	-0.30359757
3	0x3e8788c8	0.26471543
4	0xbe6d066c	-0.23146981
5	0xbf14168b	-0.578469
6	0x3ebb8151	0.36622098
7	0x3e9bdacc	0.30440366
8	0x3eccac2b	0.39975104
9	0xbe864de6	-0.26231307
10	0x3dd3654a	0.10322054
11	0x3ead2eba	0.33824712
12	0x3ea6df52	0.32592255
13	0x3e9b0668	0.30278325
14	0x3eb0a8e4	0.34503853
15	0xbd7553a5	-0.059894223
16	0x3e4ea74b	0.20181005
17	0x3e9ea067	0.30981752
18	0x3e9ee3ab	0.31033072
19	0xbeb574bf	-0.35440633
20	0x3e4fc4a7	0.2028986
21	0x3e8f7aca	0.28023368
22	0x3e9920f4	0.29907954
23	0xbde68b6f	-0.112570636
24	0x3defca91	0.11708558
25	0x3e8dad21	0.2767115
26	0x3ea4babb	0.32173714
27	0x3a4d2cbe	0.00078267965
28	0xbe69d78f	-0.22836135
29	0x3e92b1a9	0.2865117
30	0x3ec3323a	0.38124257
31	0x3e75d8ac	0.24008435
32	0x3ea197e1	0.31561187
33	0xbd4ded88	-0.050275356
34	0x3e97d2ab	0.29652914
35	0x3e9b7821	0.3036509
36	0x3e7cc9dd	0.2468638
37	0x3eca0092	0.3945356
38	0x3ec45dd5	0.38352838
39	0x3ed03667	0.40666506
40	0x3e9355f0	0.28776503
41	0x3cea9708	0.02863647
42	0x3e8e970b	0.27849612
43	0x3b1029a7	0.0021997483
44	0xbe3a353c	-0.1818437
45	0xbd112172	-0.035432287
46	0xbe422cc6	-0.18962392
47	0x3ec5e83f	0.38653752
48	0x3e8f0116	0.27930516
49	0xbe4c13f6	-0.1992949
50	0x3cc31838	0.02381526
51	0x3ec9a6ce	0.39385074
52	0x3d4cbc83	0.049984466
53	0x3e9b2a1f	0.30305573
54	0x3eb61c90	0.35568666
55	0x3ea36a64	0.31917107
56	0xbe293ba2	-0.16526654
57	0x3ecaa994	0.39582503
58	0x3ed059cb	0.40693507
59	0x3e890ed2	0.2676912
60	0x3bbb5b25	0.0057176524
61	0x3ec8aeee	0.3919596
62	0xbe57f13f	-0.21088122
63	0xbecffd16	-0.40622777
64	0x3e90df0c	0.2829517
65	0x3ee7783e	0.45208925
66	0x3d2f7158	0.042832702
67	0x3e8c7b7b	0.27437958
68	0x3d2a8a0c	0.041635558
69	0x3e4cbb7d	0.19993396
70	0x3e7ff7b2	0.24996832
71	0x3eb1e90e	0.3474812
72	0x3d04eecb	0.032454293
73	0x3e8ab05d	0.2708768
74	0x3ea5d49d	0.32388774
75	0xbe2e43b4	-0.17018014
76	0xbd4d6d5a	-0.050153114
77	0xbd1b3ff0	-0.037902772
78	0xbd5118ce	-0.051049046
79	0x3d55d734	0.052207187
80	0xbe5d9bb3	-0.21641426
81	0x3e7429a6	0.23844013
82	0xbe423c49	-0.1896831
83	0x3ec81fb6	0.39086694
84	0xbd6e565d	-0.05818783
85	0x3ec3daaf	0.3825278
86	0x3ea9ce22	0.3316508
87	0x3eb8b113	0.36072597
88	0x3eafac80	0.34311295
89	0xbe7dd3d8	-0.24787843
90	0xbe7d3035	-0.24725421
91	0xbd5feeff	-0.054671284
92	0xbe9f9552	-0.3116861
93	0x3ebb1584	0.36539853
94	0x3c2ee6d6	0.010675153
95	0x3eb4b5f0	0.35295057
96	0x3e9bcceb	0.30429778
97	0xbe49f74d	-0.19723244
98	0x3e760537	0.24025427
99	0xbd79c8bf	-0.060982462
100	0x3d2fb42d	0.04289644
101	0xbd09f38f	-0.03367954
102	0x3eb8d6d8	0.36101413
103	0xbe875c20	-0.26437473
104	0xbd6a9194	-0.05726774
105	0x3e6d2def	0.23162054
106	0x3eb348d3	0.35016498
107	0x3eb8db53	0.3610483
108	0x3cd76d9c	0.026297383
109	0xbe71628c	-0.23572749
110	0xbeb241ed	-0.34815922
111	0x3ca5f5b3	0.02025876
112	0x3ec60007	0.38671896
113	0x3e553e93	0.20824651
114	0xbe9e15ac	-0.3087591
115	0x3e8f07de	0.2793569
116	0x3ea9f5a2	0.33195215
117	0x3eee2b35	0.4651734
118	0x3ebdea46	0.370928
119	0x3ea4b1ff	0.3216705
120	0x3ec99ca5	0.39377323
121	0xbdf650c5	-0.12027124
122	0xbc2a6a5d	-0.010401336
123	0x3e75dfbf	0.24011134
124	0x3e68308b	0.22674768
125	0x3e6a1527	0.22859631
126	0x3e83247e	0.2561378
127	0x3eb445c2	0.3520947
128	0x3e9ca710	0.3059621
129	0x3e813c68	0.252414
130	0xbe9eefb3	-0.3104225
131	0x3eb48ac6	0.35262126
132	0x3c86390f	0.01638463
133	0xbf304218	-0.6885085
134	0x3e821410	0.2540593
135	0x3ecbef83	0.3983117
136	0x3eb4665e	0.3523435
137	0xbf1d4b56	-0.6144308
138	0x3e4abaf9	0.19797887
139	0x3e9e1f47	0.30883238
140	0x3e8e6a4c	0.27815473
141	0x3e8b8979	0.2725332
142	0x3eb861d7	0.36012146
143	0xbdcacc78	-0.099022806
144	0x3e99f147	0.30066893
145	0x3e9a8b01	0.30184177
146	0x3ebfb90e	0.37445873
147	0xbeb457e6	-0.3522331
148	0x3e6d5e3d	0.2318048
149	0x3eba98e7	0.3644478
150	0x3eb8a522	0.36063486
151	0xbeab35f1	-0.33439592
152	0x3e9cdf32	0.30639035
153	0x3ea0d8d0	0.31415415
154	0x3eb67424	0.35635483
155	0xbca94f71	-0.020667763
156	0xbd689c60	-0.056789756
157	0x3eab929e	0.33510298
158	0x3e95fdb4	0.29295123
159	0x3e6866b0	0.22695422
160	0x3e79ef86	0.24407777
161	0xbbfaf1a0	-0.0076581985
162	0x3ea918c2	0.330267
163	0x3e93baf9	0.28853586
164	0x3ed5bc7f	0.41745374
165	0x3eb57f8a	0.35448867
166	0x3e863d5e	0.26218694
167	0x3ebe25f5	0.37138334
168	0x3ea9b41e	0.3314523
169	0x3d1089b7	0.035287585
170	0x3e9d2cde	0.30698293
171	0xbd3f21aa	-0.046662964
172	0xbe0867bd	-0.13320823
173	0xbe220604	-0.15822607
174	0xbe4bbf98	-0.19897306
175	0x3eaee0f4	0.34156
176	0x3ea82e80	0.32847977
177	0xbeca5030	-0.39514303
178	0xbb97de58	-0.0046346597
179	0x3ebc11cd	0.3673233
180	0x3d02df73	0.03195138
181	0x3e9e134d	0.308741
182	0x3e978736	0.29595345
183	0x3e85f9d0	0.26167154
184	0xbea0f5d1	-0.31437543
185	0x3eb021b2	0.34400707
186	0x3eacc1ed	0.33741704
187	0x3e8de3a4	0.2771274
188	0xbd378089	-0.044800315
189	0x3eb7df5c	0.35912597
190	0x3e2f9358	0.17146051
191	0xbf5685bd	-0.8379782
192	0x3eb42e75	0.35191694
193	0x3e7afdd2	0.24510887
194	0x3e4479ff	0.19187163
195	0x3ea511e5	0.32240215
196	0x3d1001a6	0.035157822
197	0x3e6cc825	0.23123224
198	0x3e9713a7	0.2950718
199	0x3ea3f76e	0.3202471
200	0x3d361ce3	0.044461142
201	0x3e9e0ffa	0.30871564
202	0x3ec4f205	0.38465896
203	0x3e5fd425	0.2185827
204	0x3e50367b	0.20333283
205	0xbcaaa760	-0.020831764
206	0xbd95be15	-0.07311646
207	0x3b564f01	0.0032700899
208	0x3dad6e7b	0.08468338
209	0xbe55a5e6	-0.20864066
210	0xbeb14446	-0.346224
211	0x3ead71db	0.33875927
212	0xbe8ba50b	-0.27274355
213	0x3ea14395	0.31496873
214	0x3e9093c9	0.2823775
215	0x3e9def4e	0.30846637
216	0x3ea69c81	0.32541278
217	0x3c843d85	0.016142616
218	0xbd3f69bd	-0.0467317
219	0xbd449d65	-0.048001666
220	0xbeaf8b7a	-0.342861
221	0x3ea373c9	0.31924275
222	0xbd211488	-0.03932622
223	0x3e999078	0.29993033
224	0x3ea34619	0.31889418
225	0xbe948a47	-0.29011747
226	0x3eafe8c0	0.34357262
227	0xbd25ce34	-0.040479854
228	0xbd3be0e1	-0.045868758
229	0xbad58914	-0.0016291463
230	0x3ea98bd6	0.331145
231	0xbad79f83	-0.0016450736
232	0x3e0dbcf4	0.13841611
233	0x3e9c1845	0.30487266
234	0x3eb874c7	0.36026594
235	0x3eb171e9	0.3465722
236	0xba9e6530	-0.00120846
237	0xbe49da97	-0.19712292
238	0xbe8cab56	-0.2747447
239	0xbd06f750	-0.0329507
240	0x3e32adf9	0.17449178
241	0x3eadf7d0	0.33978128
242	0xbeae06ee	-0.33989662
243	0x3eb0a3d7	0.345
244	0x3ea67141	0.3250828
245	0x3e58832d	0.2114379
246	0x3e2737f9	0.16329946
247	0x3ecc3fcc	0.39892423
248	0x3dfa4bf3	0.122215174
249	0xbe997071	-0.29968598
250	0x3d187b28	0.037226826
251	0x3eaa4f69	0.3326371
252	0x3eb7d1dc	0.35902297
253	0x3ebc6a87	0.36800024
254	0x3eaae632	0.3337875
255	0x3e89cae7	0.26912615

layer3.bias f4 [2]
0	0x3d757b47	0.05993202
1	0x3d20f455	0.039295513
