simulator/congestion_simulations/model.pt (torch, 14279 bytes, 6 tensors)

input_layer.weight f4 [50, 5]
-0.32620233 0.4553806 0.25592616 -0.23167229 -0.16039875 -0.12040382 -0.16245078 -0.026563775
0.34241247 0.36861837 0.380472 -0.37469485 -0.40350145 0.31946167 0.19702592 -0.1816821
0.25385246 0.27193856 0.004022798 -0.0705656 0.20834796 0.37806875 -0.2509397 0.07340024
-0.31425515 0.10679252 -0.3867049 0.16306315 0.27777064 0.09766238 0.42370424 0.29268554
-0.31808236 -0.20266068 -0.23146611 0.06848567 -0.12544891 0.29007417 -0.18232025 -0.106887095
0.07297638 0.27869695 -0.04506662 -0.4189382 0.37779996 0.43323708 0.41565087 -0.2158279
-0.0104652215 -0.15934555 -0.35848138 -0.22768047 0.15130469 -0.2659054 -0.27684686 -0.29622632
-0.3193993 -0.107047625 -0.17285126 -0.24145374 -0.11549379 0.1038538 0.2500874 0.11791337
0.024532078 0.058422532 -0.42934114 0.16324048 -0.30503672 -0.06554488 0.024744721 -0.32855612
-0.1369069 0.32047907 -0.16501538 -0.037933886 -0.32806674 0.17747203 -0.33788976 0.3596025
-0.32712722 0.07718252 0.2451059 0.38451472 -0.39609158 0.3040776 -0.16616796 0.34837
0.2557451 0.37363428 0.39860165 -0.05193723 -0.35437125 0.1581668 -0.037399277 0.27583084
0.40522158 0.22582425 -0.3120034 -0.13126643 -0.18190546 -0.1795813 0.015547041 -0.20222448
0.30830485 -0.36217028 -0.26922178 0.43482003 -0.27183855 -0.43701625 -0.26588425 -0.22062907
0.17905062 -0.15896131 0.15556891 -0.03580396 -0.11394922 -0.4362375 0.07000283 0.33742782
0.08413642 0.42553848 -0.22543395 0.104456194 0.13834237 -0.099915296 0.1533502 0.35350162
0.15683983 0.1453295 0.15753962 0.07775347 -0.05832858 -0.19355375 0.21517624 -0.31649408
0.45246857 -0.12213283 0.031071227 0.017897407 0.15325378 0.20025805 -0.35310856 0.24998134
0.23816119 0.07837399 -0.40809578 0.26470768 0.25648147 0.39942285 0.13027948 0.29989165
-0.15844236 -0.08951308 -0.02285202 0.26151153 -0.02030539 -0.3909581 0.26686263 0.10812847
0.3756079 0.48855874 0.20122956 -0.42475775 0.010319723 -0.4163673 -0.38095996 0.22216465
-0.32547393 -0.13798533 0.061448768 0.1913224 0.3168879 0.076755665 0.16394812 0.21214727
-0.35579568 -0.08166178 0.030220794 -0.2917137 0.10713607 -0.09276757 -0.17031251 0.42897102
-0.19354904 0.08413678 0.102690354 0.4291457 0.20129518 0.14516497 -0.3313832 -0.13001241
-0.41928554 -0.36545953 -0.049968965 -0.27936432 0.35792983 -0.32038346 0.2866282 -0.3179876
-0.3114389 0.3465727 0.35116628 0.40379262 -0.14334455 0.34724775 0.24921477 -0.15319106
0.41415793 0.12878942 -0.33511314 0.3230376 0.09482734 -0.20542054 -0.34620127 0.3697855
-0.33146673 0.17019366 -0.0571183 0.4389642 -0.16170602 -0.42447242 -0.43561757 0.34875745
0.12769578 0.37898782 0.31830877 0.23249216 -0.2205873 0.23858312 0.2550189 0.11155995
0.2349199 0.30470493 0.395321 -0.050160155 0.32046717 0.13354692 -0.05704714 0.2730431
0.2210692 -0.025090601 0.2255043 -0.14195427 -0.07941422 -0.14613506 0.30448422 0.064022884
0.35755044 0.09299295
00000000: fe03 a7be a527 e93e c108 833e 803b 6dbe
00000010: 923f 24be 4796 f6bd 7f59 26be 469c d9bc
00000020: b050 af3e 8cbb bc3e 3acd c23e 01d8 bfbe
00000030: be97 cebe 7b90 a33e 2ac1 493e df0a 3abe
00000040: f3f8 813e 883b 8b3e add1 833b b384 90bd
00000050: 2b59 553e 3a92 c13e 2b7b 80be dd52 963d
00000060: 0de6 a0be 09b6 da3d 2ffe c5be 07fa 263e
00000070: f437 8e3e 3703 c83d c3ef d83e e1da 953e
00000080: b1db a2be 4886 4fbe 7405 6dbe 3742 8c3d
00000090: ae75 00be 9a84 943e 29b2 3abe 9fe7 dabd
000000a0: a474 953d 5eb1 8e3e c797 38bd 117f d6be
000000b0: ff6e c13e 40d1 dd3e 31d0 d43e fd01 5dbe
000000c0: 5276 2bbc 7b2b 23be df8a b7be 1225 69be
000000d0: 9eef 1a3e c124 88be dfbe 8dbe faaa 97be
000000e0: 4e88 a3be c93b dbbd ecff 30be a63f 77be
000000f0: 0288 ecbd 4db1 d43d 750b 803e 917c f13d
00000100: 7ff7 c83c 774c 6f3d 9ad2 dbbe 8328 273e
00000110: c62d 9cbe 653c 86bd 71b5 ca3c 8238 a8be
00000120: 5331 0cbe d515 a43e cbf9 28be 9060 1bbd
00000130: 5df8 a7be 3abb 353e e3ff acbe d21d b83e
00000140: 387d a7be de11 9e3d 0bfd 7a3e 1ddf c43e
00000150: 84cc cabe 0fb0 9b3e ef27 2abe 8d5d b23e
00000160: 06f1 823e fe4c bf3e 8415 cc3e 22bc 54bd
00000170: 2670 b5be 7af6 213e fc2f 19bd b339 8d3e
00000180: 3479 cf3e 793e 673e e9be 9fbe b56a 06be
00000190: 6d45 3abe 29e4 37be 04b9 7e3c ef13 4fbe
000001a0: 22da 9d3e 626e b9be 70d7 89be bba0 de3e
000001b0: 6c2e 8bbe 98c0 dfbe fb21 88be 96ec 61be
000001c0: 0c59 373e c1c6 22be 754d 1f3e 2ca7 12bd
000001d0: 355e e9bd 865a dfbe a55d 8f3d 57c3 ac3e
000001e0: b74f ac3d 2ee0 d93e 28d8 66be 21ed d53d
000001f0: 9fa9 0d3e 64a0 ccbd d607 1d3e 2afe b43e
00000200: 9f9a 203e 42d1 143e 1152 213e 363d 9f3d
00000210: f3e9 6ebd f432 46be 2957 5c3e 830b a2be
00000220: f6a9 e73e c720 fabd 1689 fe3c 959d 923c
00000230: 8fee 1c3e 7210 4d3e a5ca b4be 1cfb 7f3e
00000240: 87e0 733e 8b82 a03d eef1 d0be c487 873e
00000250: 8a51 833e 2781 cc3e fc67 053e 668b 993e
00000260: b73e 22be a252 b7bd 2934 bbbc d7e4 853e
00000270: 7d57 a6bc a92b c8be 38a2 883e 7672 dd3d
00000280: ae4f c03e 5f24 fa3e 1f0f 4e3e d979 d9be
00000290: 0e14 293c 182e d5be 2f0d c3be 217f 633e
000002a0: 85a4 a6be 074c 0dbe b4b1 7b3d 05ea 433e
000002b0: 213f a23e 1332 9d3d 04e2 273e 223d 593e
000002c0: da2a b6be 4b3e a7bd 9991 f73c 805b 95be
000002d0: 286a db3d ecfc bdbd 6766 2ebe 17a2 db3e
000002e0: b831 46be e74f ac3d 524f d23d fcb8 db3e
000002f0: 5320 4e3e 20a6 143e 0fab a9be f921 05be
00000300: 98ac d6be 831d bbbe 42ac 4cbd d708 8fbe
00000310: 9442 b73e 4d09 a4be eec0 923e 45cf a2be
00000320: eb74 9fbe fa71 b13e 11cc b33e e8bd ce3e
00000330: eac8 12be 75ca b13e 2832 7f3e 1ede 1cbe
00000340: 820c d43e 60e1 033e f393 abbe 2f65 a53e
00000350: d634 c23d c359 52be 4b41 b1be 8654 bd3e
00000360: 02b6 a9be 3f47 2e3e e1f4 69bd eabf e03e
00000370: 4396 25be 7354 d9be 4409 dfbe 5690 b23e
00000380: afc2 023e b10a c23e 5ef9 a23e 6d12 6e3e
00000390: a3e1 61be 224f 743e d691 823e 8b79 e43d
000003a0: d88e 703e 4902 9c3e 8467 ca3e bc74 4dbd
000003b0: 4614 a43e 86c0 083e 43aa 69bd 4ecc 8b3e
000003c0: f75f 623e ce8a cdbc 99ea 663e 765c 11be
000003d0: eca3 a2bd 6ea4 15be 5be5 9b3e 6e1e 833d
000003e0: da10 b73e 1673 be3d

input_layer.bias f4 [50]
-0.27310395 0.37093207 0.35755187 0.117512845 -0.31808174 0.17694248 0.40596616 0.24533011
0.213785 -0.31379724 -0.42597878 0.261803 0.33621237 -0.15346178 -0.13078031 0.29521292
0.048474494 0.07795175 -0.3236757 0.47929758 -0.39475927 0.07497642 0.27556565 0.062289428
-0.21327406 -0.13181017 0.123307325 -0.23789579 -0.26852313 -0.432698 -0.21027336 -0.3717694
0.20937338 -0.01413763 0.028865406 0.21601602 -0.074974425 -0.19164515 -0.39174092 0.27841032
-0.27317807 0.49121374 -0.054714937 0.055008233 -0.2814969 -0.0051400745 -0.22789057 -0.23782882
0.25258747 -0.16273995
00000000: 48d4 8bbe cfea bd3e 0a11 b73e 93aa f03d
00000010: 9cdb a2be 6930 353e ccda cf3e d137 7b3e
00000020: 74ea 5a3e 08aa a0be e419 dabe 0b0b 863e
00000030: 0724 ac3e 1625 1dbe 46eb 05be 2626 973e
00000040: 318d 463d 2ba5 9f3d d2b8 a5be 7e66 f53e
00000050: e31d cabe 3d8d 993d f116 8d3e 3323 7f3d
00000060: 8464 5abe 3ff9 06be 8d88 fc3d f49a 73be
00000070: dd7b 89be 988a ddbe e651 57be 8f58 bebe
00000080: fa65 563e 85a1 67bc 2577 ec3c 4e33 5d3e
00000090: 318c 99bd a03e 44be 4492 c8be cc8b 8e3e
000000a0: ffdd 8bbe 5e80 fb3e c51c 60bd 5050 613d
000000b0: 5d20 90be 126e a8bb 255c 69be 6689 73be
000000c0: 2553 813e 4da5 26be

hidden_layer.weight f4 [50, 50]
0.050215684 -0.10862329 0.056725517 0.06590446 -0.05292198 -0.026211802 -0.046062056 0.11337092
-0.065527685 0.032372426 -0.04743432 0.09752121 0.092614 0.0892124 -0.08921347 -0.105001025
-0.0047764247 0.0127772335 0.0085855005 0.016392803 -0.01754697 0.043506235 0.13308388 -0.13869703
0.048056494 -0.057815224 -0.10907618 -0.0963089 0.090813324 -0.08017158 -0.066061385 -0.0032807947
0.02555712 -0.096483074 0.04008359 0.022121035 0.013160849 -0.12546268 0.07064578 -0.11433755
-0.07059943 -0.0044996208 -0.09925894 -0.073729694 0.024102567 -0.019060161 -0.023509396 0.0532599
0.0712914 -0.13447556 -0.08169377 0.067693196 0.10329519 -0.08317979 -0.0122800525 0.050486855
0.074589334 -0.08241945 0.010828116 -0.1434873 0.049956597 -0.10806307 -0.09538289 0.12767309
-0.08755654 0.12173266 0.069642454 0.052763555 0.09053761 -0.1409476 -0.08053085 -0.020137468
-0.036953814 0.055726156 -0.037156317 -0.11734275 -0.021940114 0.038087755 0.09142403 0.039067384
0.13357528 0.112835996 -0.0713883 0.0154499365 0.08676991 0.13465622 -0.08517375 0.032792106
-0.005096954 0.12440504 -0.045047835 0.011925246 0.084160626 0.06519485 0.11016037 -0.025636975
0.12662916 0.112212196 -0.036624607 0.0899634 -0.08058012 0.02491709 -0.09416221 0.13344039
0.054538745 -0.11632198 -0.079985 0.0014776808 0.030022912 0.08523627 0.0557749 -0.0806107
0.10273421 -0.021292634 -0.026568215 -0.07176678 -0.11238174 -0.06096867 -0.03183309 0.09227025
-0.0375516 -0.048803765 -0.036292635 0.12224403 0.10093544 0.058982573 -0.114693195 -0.033179108
-0.108485736 -0.063136674 0.085022815 0.06265615 -0.09762005 -0.059802078 -0.06851133 -0.0845416
0.026430953 -0.11743378 -0.09848861 -0.08928236 0.047814973 -0.13740905 -0.115989976 0.038994145
-0.077378556 0.119722344 0.1328714 -0.11198397 0.03581352 0.061244473 0.03891754 -0.121437944
-0.055115644 0.13308293 0.0523171 -0.013942006 0.046016052 0.092160955 0.101480745 -0.1236251
0.095242955 0.050386377 0.063887015 0.08374543 0.087006524 0.0725483 -0.11999551 0.07062335
0.12531519 0.11391587 0.12650189 -0.12210905 0.09191764 -0.106228635 -0.0693132 -0.053112775
-0.04786622 0.009853977 -0.13289441 -0.0382689 0.026491672 -0.07607073 -0.13402392 0.13004497
-0.0599045 0.039773684 0.056758575 0.04637925 0.009732866 -0.001795616 -0.09260151 -0.14152841
0.088607036 -0.034170765 0.061619114 0.08889211 0.064908005 -0.031733245 0.11417078 0.112485826
0.033041667 0.019342404 -0.015624499 -0.052772485 0.03565401 -0.06899334 -0.06991868 0.008410971
0.018868854 -0.09852739 -0.08411884 0.07230982 0.12764429 0.12115736 0.015762901 -0.12614778
0.04809747 -0.046473514 -0.052309237 -0.1420846 -0.051534463 0.07850821 0.060790967 -0.08761869
0.05521432 -0.023336228 -0.09940679 -0.05812186 0.053750142 -0.13116896 0.053145967 -0.12606025
0.08075648 0.06107269 0.008191289 0.11324751 0.060134113 -0.090448394 0.06104107 -0.06898412
0.040926732 -0.037403394 -0.086916246 -0.006893518 0.12224499 0.116831705 0.018972365 0.01785
0.022035465 0.1299959 0.14686199 0.119224556 -0.04538789 0.06223263 0.060844883 -0.035997458
00000000: f6ae 4d3d e375 debd 0459 683d ebf8 863d
00000010: b8c4 58bd 22ba d6bc 91ab 3cbd 032f e83d
00000020: 6133 86bd f398 043d 7d4a 42bd 33b9 c73d
00000030: 69ac bd3d feb4 b63d 8db5 b6bd c70a d7bd
00000040: 8e83 9cbb 9a57 513c 33aa 0c3c 334a 863c
00000050: aabe 8fbc 9833 323d 2447 083e 9806 0ebe
00000060: e3d6 443d a8cf 6cbd 5563 dfbd 9a3d c5bd
00000070: 56fc b93d ff30 a4bd 314b 87bd 9a02 57bb
00000080: 2a5d d13c eb98 c5bd b12e 243d 2c37 b53c
00000090: 9aa0 573c 4a79 00be bcae 903d ce29 eabd
000000a0: 6f96 90bd 8e71 93bb 4548 cbbd 98ff 96bd
000000b0: bf72 c53c 0e24 9cbc c796 c0bc 0e27 5a3d
000000c0: 3a01 923d f6b3 09be 104f a7bd bba2 8a3d
000000d0: 6e8c d33d 2a5a aabd 4632 49bc 4ecb 4e3d
000000e0: 4bc2 983d 87cb a8bd 6968 313c 56ee 12be
000000f0: 4a9f 4c3d 2c50 ddbd 1b58 c3bd bcbc 023e
00000100: d850 b3bd f94e f93d b4a0 8e3d 991e 583d
00000110: c86b b93d 9154 10be 5ced a4bd 55f7 a4bc
00000120: e25c 17bd 1c41 643d 3931 18bd 6551 f0bd
00000130: c1bb b3bc e801 1c3d 863c bb3d 1f05 203d
00000140: f5c7 083e 8f16 e73d 0734 92bd bb21 7d3c
00000150: 6cb4 b13d 52e3 093e 936f aebd 0451 063d
00000160: 5904 a7bb 12c8 fe3d 1484 38bd 1b62 433c
00000170: 685c ac3d e184 853d c39b e13d a204 d2bc
00000180: 13ab 013e 82cf e53d af03 16bd bb3e b83d
00000190: 3107 a5bd ed1e cc3c 1ed8 c0bd 99a4 083e
000001a0: 0564 5f3d 383a eebd 2dcf a3bd bdae c13a
000001b0: 9cf2 f53c 5b90 ae3d 3974 643d 3917 a5bd
000001c0: 5066 d23d e46d aebc 96a5 d9bc 76fa 92bd
000001d0: 6628 e6bd 49ba 79bd 6a63 02bd 2ff8 bc3d
000001e0: b5cf 19bd 75e6 47bd 96a7 14bd 145b fa3d
000001f0: 3db7 ce3d b697 713d 44e4 eabd d1e6 07bd
00000200: c52d debd cd4d 81bd 7120 ae3d de51 803d
00000210: 05ed c7bd 06f3 74bd ab4f 8cbd 2524 adbd
00000220: ba85 d83c 1f81 f0bd 65b4 c9bd acd9 b6bd
00000230: a2d9 433d f5b4 0cbe 278c edbd 53b8 1f3d
00000240: a678 9ebd fd30 f53d 710f 083e da57 e5bd
00000250: 33b1 123d 7cdb 7a3d 0068 1f3d 75b4 f8bd
00000260: f1c0 61bd e446 083e 754a 563d 036d 64bc
00000270: 547b 3c3d e2be bc3d 23d5 cf3d 282f fdbd
00000280: bd0e c33d f261 4e3d 32d7 823d b982 ab3d
00000290: 7a30 b23d 3494 943d 35c0 f5bd faa2 903d
000002a0: a052 003e b94c e93d b689 013e 4f14 fabd
000002b0: 513f bc3d 668e d9bd 14f4 8dbd c88c 59bd
000002c0: 5f0f 44bd 9372 213c 7915 08be dabf 1cbd
000002d0: 1005 d93c f9ca 9bbd 913d 09be 822a 053e
000002e0: 6c5e 75bd bbe9 223d ae7b 683d 2bf8 3d3d
000002f0: 9976 1f3c e05a ebba dca5 bdbd d3ec 10be
00000300: 9b77 b53d a5f6 0bbd 5364 7c3d 110d b63d
00000310: 7dee 843d b8fa 01bd 5fd2 e93d f85e e63d
00000320: b356 073d f673 9e3c e6fd 7fbc f627 58bd
00000330: f009 123d 614c 8dbd 8631 8fbd 2bce 093c
00000340: db92 9a3c bac8 c9bd 8046 acbd 2c17 943d
00000350: 2fb5 023e 5a21 f83d 3321 813c e22c 01be
00000360: da01 453d 035b 3ebd 3642 56bd a07e 11be
00000370: cd15 53bd eac8 a03d f3ff 783d 6e71 b3bd
00000380: 6928 623d 9e2b bfbc ca95 cbbd 3011 6ebd
00000390: 1c29 5c3d 2851 06be 96af 593d f015 01be
000003a0: a763 a53d 5b27 7a3d c234 063c 4fee e73d
000003b0: 304f 763d 023d b9bd 3306 7a3d 8c47 8dbd
000003c0: caa2 273d 4d34 19bd 2501 b2bd 05e3 e1bb
000003d0: 955b fa3d 7645 ef3d ef6b 9b3c 2a3a 923c
000003e0: b883 b43c a51d 053e fd62 163e 012c f43d
000003f0: a7e8 39bd a4e7 7e3d 7c38 793d 1272 13bd

hidden_layer.bias f4 [50]
-0.10994781 -0.084375076 0.04558439 0.04142594 0.08370069 -0.009269832 0.14857194 -0.04336492
0.018971767 -0.015975246 -0.051517673 0.017888408 0.08015982 0.022160647 -0.12468362 0.060592335
-0.09382356 0.13292788 -0.06275409 0.0026308848 0.10235904 0.05937683 -0.06911165 -0.04176511
-0.13738258 0.110037975 -0.011888433 0.097304754 -0.022789925 0.047459364 -0.010678852 0.04037007
-0.06869316 -0.07249315 -0.13986002 0.016413705 -0.07886586 -0.13781063 -0.07367416 -0.07682081
0.1706435 -0.11687231 0.070233375 0.11814002 0.037470132 -0.019094719 0.16569473 -0.04626699
0.09364475 0.03497983
00000000: 512c e1bd d7cc acbd b3b6 3a3d 3fae 293d
00000010: 446b ab3d 7ee0 17bc 3e23 183e 6a9f 31bd
00000020: ae6a 9b3c 85de 82bc 3204 53bd b68a 923c
00000030: d52a a43d 3f8a b53c 205a ffbd ab2f 783d
00000040: 9126 c0bd 3f1e 083e 3785 80bd ec6a 2c3b
00000050: 9ea1 d13d 1e35 733d 698a 8dbd e411 2bbd
00000060: 05ae 0cbe 975b e13d b4c7 42bc b747 c73d
00000070: f0b1 babc c064 423d 5af6 2ebc 165b 253d
00000080: 00af 8cbd 4a77 94bd 7737 0fbe 0976 863c
00000090: 6d84 a1bd 3b1e 0dbe 7ae2 96bd 3b54 9dbd
000000a0: 2bbd 2e3e c05a efbd 84d6 8f3d 65f3 f13d
000000b0: 487a 193d 876c 9cbc e1ab 293e 7582 3dbd
000000c0: d2c8 bf3d 0347 0f3d

output_layer.weight f4 [4, 50]
-0.10340823 0.033632934 0.02764241 0.10205197 -0.017488852 0.11858809 0.17853984 0.067115344
0.12733436 0.038119487 0.009872894 0.13696866 -0.100355715 -0.055183545 0.14204234 0.03244963
-0.09328994 -0.024874385 0.006417066 0.097029455 -0.10009241 0.01763186 -0.06443581 -0.102713816
-0.026865656 0.16502982 0.18711005 -0.11299794 0.0918809 0.15897992 0.12423994 0.021982802
0.16755909 -0.021220181 -0.05054201 -0.06663496 0.1592631 -0.018183857 0.08796926 0.12853208
0.1301431 0.033523124 0.13189515 -0.07046782 -0.10291244 -0.005256378 0.07017248 -0.08350748
0.14256604 -0.038305275 0.037954412 -0.1184755 -0.06907029 -0.048652053 0.043112103 0.13509189
0.2286769 -0.05888223 0.16723958 0.009672516 0.039323516 0.0238367 -0.075640194 -0.11235678
0.13166054 0.08013769 0.1310746 -0.07131877 -0.13600734 0.09311903 0.092516996 -0.075386904
0.14013179 0.14037809 -0.018519094 0.1708767 0.14742963 -0.09134781 0.18289384 -0.006998732
-0.036290176 0.011240561 0.10967155 -0.038566023 0.12085424 0.011558474 0.1456905 -0.097197995
0.14786364 0.16719212 -0.02215671 -0.095899135 0.17991707 0.09914911 0.026478866 -0.09065235
0.21478555 0.03702469 0.005906753 0.025196679 -0.05860369 -0.059284415 -0.029725347 -0.03759495
-0.07618302 0.1786339 0.2271046 0.026804158 0.071807295 -0.09556353 -0.124207675 0.032043386
0.06990704 -0.020874811 -0.11883705 -0.020040127 0.12125729 -0.111016475 0.06333388 0.10591526
-0.07902497 -0.12279923 -0.016999787 0.09538059 -0.10978448 0.052481756 0.1975684 0.0034310978
0.07902308 0.07135151 0.027705973 -0.08462762 0.24415277 -0.10029622 -0.10321984 -0.033785544
0.056495365 -0.098854244 0.14655739 0.07887652 0.20219404 0.08180807 0.24717723 0.11823785
-0.118036285 -0.12973696 0.09618784 -0.078701645 -0.03339959 0.08968134 -0.044868402 -0.13601959
-0.065797955 -0.024579259 0.089562595 0.19355606 0.029041726 -0.04269878 0.11310374 0.11548775
-0.1273288 0.030145986 -0.015921494 0.0033063109 -0.0067943255 0.021082867 0.2178409 0.08595456
-0.13274679 -0.081631765 0.07354285 0.08290134 0.083699934 0.06282977 -0.106393695 0.02920805
0.13849671 0.0833566 0.19567114 0.1364156 0.17342341 0.03940196 0.0041768095 0.06833712
0.13187115 -0.10407236 0.10229514 0.014706552 0.08308949 0.03694478 0.20385894 0.07930953
0.23269238 -0.028394433 0.10767589 -0.02371061 0.25015485 0.06806771 -0.086433075 0.043666612
00000000: b2c7 d3bd b0c2 093d 5672 e23c a000 d13d
00000010: c844 8fbc 50de f23d 26d3 363e c573 893d
00000020: f063 023e 2e23 1c3d ebc1 213c 8341 0c3e
00000030: 4c87 cdbd 2408 62bd 8c73 113e e7e9 043d
00000040: cc0e bfbd 5ec5 cbbc 4046 d23b 61b7 c63d
00000050: 40fd ccbd b170 903c ecf6 83bd 9f5b d2bd
00000060: 5d15 dcbc 94fd 283e c799 3f3e 776b e7bd
00000070: 0e2c bc3d a2cb 223e 8271 fe3d 4715 b43c
00000080: 9c94 2b3e f2d5 adbc 2405 4fbd e977 88bd
00000090: de15 233e 50f6 94bc 3a29 b43d ea9d 033e
000000a0: 3c44 053e 8b4f 093d 860f 073e 6f51 90bd
000000b0: c2c3 d2bd b23d acbb 97b6 8f3d f805 abbd
000000c0: d5fc 113e fee5 1cbd 1676 1b3d 48a3 f2bd
000000d0: b974 8dbd 6047 47bd 5196 303d 8755 0a3e
000000e0: 472a 6a3e 7e2e 71bd da40 2b3e 7979 1e3c
000000f0: b211 213d 2f45 c33c 3fe9 9abd 501b e6bd
00000100: 05d2 063e 3b1f a43d 6c38 063e 930f 92bd
00000110: 8245 0bbe 31b5 be3d 8d79 bd3d 7364 9abd
00000120: b57e 0f3e 46bf 0f3e 5bb5 97bc 4dfa 2e3e
00000130: cbf7 163e 9014 bbbd 8648 3b3e 9f55 e5bb
00000140: 02a5 14bd 542a 383c 7a9b e03d 68f7 1dbd
00000150: 6e82 f73d c15f 3d3c e42f 153e be0f c7bd
00000160: 9169 173e 6934 2b3e fd81 b5bc c466 c4bd
00000170: 2e3c 383e b00e cb3d 35ea d83c f0a7 b9bd
00000180: bef0 5b3e 34a7 173d 6f8d c13b 4469 ce3c
00000190: 6c0a 70bd 37d4 72bd 9282 f3bc 2afd 19bd
000001a0: d805 9cbd ceeb 363e 1c8e 683e 6594 db3c
000001b0: b40f 933d d0b6 c3bd 9860 febd ed3f 033d
000001c0: 6c2b 8f3d a701 abbc d760 f3bd 312b a4bc
000001d0: be55 f83d 9b5c e3bd 31b5 813d 1aea d83d
000001e0: d8d7 a1bd 2a7e fbbd 2343 8bbc e656 c33d
000001f0: afd6 e0bd 1cf7 563d 5f4f 4a3e 45dc 603b
00000200: dad6 a13d be20 923d a3f7 e23c 3f51 adbd
00000210: 2f03 7a3e 1b68 cdbd ec64 d3bd b662 0abd
00000220: af67 673d 1874 cabd 2413 163e 038a a13d
00000230: f40b 4f3e fd8a a73d 071c 7d3e b026 f23d
00000240: 02bd f1bd c4d9 04be 21fe c43d 542e a1bd
00000250: 02ce 08bd daaa b73d eec7 37bd b848 0bbe
00000260: 14c1 86bd 715a c9bc 986c b73d 8f33 463e
00000270: eae8 ed3c eae4 2ebd efa2 e73d d784 ec3d
00000280: 7b62 02be b7f4 f63c cb6d 82bc b1ae 583b
00000290: efa2 debb fab5 ac3c af11 5f3e f208 b03d
000002a0: c6ee 07be 8e2e a7bd a29d 963d 2ec8 a93d
000002b0: df6a ab3d e5ac 803d f0e4 d9bd b845 ef3c
000002c0: 15d2 0d3e ddb6 aa3d 045e 483e 88b0 0b3e
000002d0: e895 313e f363 213d 9edd 883b 55f4 8b3d
000002e0: 3b09 073e e423 d5bd 1d80 d13d c0f3 703c
000002f0: d32a aa3d 6953 173d 66c0 503e 096d a23d
00000300: e946 6e3e 719b e8bc 2d85 dc3d c13c c2bc
00000310: 4c14 803e 1567 8b3d d303 b1bd c3db 323d

output_layer.bias f4 [4]
0.027226541 0.088555545 0.04593266 0.19775368
00000000: 320a df3c 9c5c b53d e323 3c3d f17f 4a3e
